model_saved_must_work.pth (torch, 63069 bytes, 12 tensors)

log_std f4 [8]
-0.013659528 0.0021294754 -0.005120897 -0.011805796 -0.006862171 -0.009529015 0.015126086 -0.0042437357
00000000: 37cc 5fbc ab8e 0b3b 33cd a7bb 196d 41bc
00000010: 10dc e0bb 961f 1cbc 67d3 773c 090f 8bbb

mlp_extractor.policy_net.0.weight f4 [64, 42]
-0.0070763673 -0.0403286 0.2960715 -0.17982522 0.010485541 0.09659325 0.3233137 -0.018450173
-0.02901335 -0.020413993 0.21107505 0.027714023 0.03654723 0.4030577 -0.012707925 -0.065000504
-0.3879982 -0.048077237 -0.35293767 -0.036182847 0.07065849 -0.10058079 -0.09126096 0.11409164
0.06708879 -0.11306232 0.19901651 0.014381395 -0.17814453 -0.18220942 0.14632814 0.042419653
-0.15578842 -0.13078174 -0.040445805 -0.1982098 -0.16341865 -0.27858043 0.078100786 -0.25137967
-0.19003229 -0.32407382 0.22019671 0.12663658 0.31772375 -0.19913317 0.09676078 -0.11626789
0.14876644 -0.20969616 0.09710605 -0.057646856 -0.35178798 -0.07577102 0.1402172 0.029552398
0.03618785 -0.1269074 -0.21846625 -0.21475129 0.145214 -0.3644054 0.0037244381 0.026423901
0.078774855 -0.04311881 -0.15675806 -0.091219306 0.23108159 -0.15256768 0.12276729 0.16751328
0.058378033 -0.11056592 -0.03295683 0.49319088 -0.21404697 -0.08159625 0.25397667 -0.12784737
0.30904263 -0.047869366 0.18160021 0.19149046 0.060704418 -0.21341094 -0.12502062 -0.051730122
0.25003138 -0.05074688 -0.0050510415 -0.213847 0.15288861 -0.11996066 -0.06791029 0.20691192
-0.08305425 -0.20904976 0.18952516 -0.17070794 -0.09809779 -0.09008789 0.13490823 0.123657785
-0.040996492 -0.10835703 0.0071588615 -0.3929025 -0.13650122 0.18595003 0.018209495 -0.06422799
0.062468793 -0.18694994 0.024972884 -0.076093145 -0.441717 -0.0770308 0.082407266 -0.104613855
0.13266923 0.047325812 0.21500501 0.04915097 -0.025960885 -0.1432455 -0.5267048 0.16697562
-0.10032506 -0.10010907 -0.055757962 -0.07551891 0.13125105 0.20158648 -0.24073532 0.049112424
0.04748599 -0.024611546 -0.08793348 0.041086044 -0.3594151 0.22532785 0.025937686 0.15702611
0.088088095 0.10960317 0.14284419 -0.18147913 0.16360098 0.070434704 -0.15446506 0.19460504
-0.11543769 -0.015970021 -0.052232552 -0.119080946 -0.23679334 0.47979262 -0.072843336 -0.093293
0.10745315 -0.032591756 0.30399308 -0.14917356 0.058431968 0.07914945 0.19141655 0.2110302
-0.125004 0.04186923 -0.21715443 -0.16608743 -0.139242 0.15162331 -0.2431947 -0.13960782
-0.17499323 0.2082496 0.0014631079 -0.09168362 -0.35124835 0.0790692 -0.011288921 -0.40994167
0.016117565 -0.11365242 0.19919594 0.013524963 0.03644685 -0.056239143 -0.14711297 -0.03577893
-0.11742559 -0.33045956 0.1423697 0.27229485 -0.21828422 -0.073181875 -0.052105837 0.055472367
-0.14081353 0.26501304 -0.41148275 0.17826052 0.12402685 -0.061732817 -0.33957902 -0.06360655
-0.1217457 -0.113079146 -0.09794277 -0.00028425598 0.2793465 -0.3498574 -0.014217902 0.24658462
0.14119482 0.0108734025 0.32474494 0.23368274 -0.073523074 0.0536617 -0.18611082 -0.4396898
-0.2657741 -0.06657122 -0.14807929 -0.02224501 -0.0333606 0.15965487 -0.2715436 -0.24599949
-0.26962593 0.10788474 -0.0466105 0.093080424 -0.15091375 0.13090838 -0.11137335 -0.07194907
0.016489973 -0.13744365 0.19623344 0.25017545 -0.032810494 -0.22116278 -0.12303065 -0.06492861
0.18439052 0.14050524 -0.035467945 0.07869009 0.1751034 -0.19442938 -0.121228375 -0.031429037
00000000: dfe0 e7bb 9a2f 25bd af96 973e 1a24 38be
00000010: 8ccb 2b3c afd2 c53d 6089 a53e d124 97bc
00000020: 68ad edbc 3f3b a7bc 0f24 583e 8508 e33c
00000030: 8cb2 153d 945d ce3e e734 50bc fc1e 85bd
00000040: b3a7 c6be a3ec 44bd 3fb4 b4be 7734 14bd
00000050: 66b5 903d 4dfd cdbd 07e7 babd e1a8 e93d
00000060: d965 893d 388d e7bd fcca 4b3e f19f 6b3c
00000070: 856b 36be 1b95 3abe 0bd7 153e 3bc0 2d3d
00000080: 0087 1fbe a6eb 05be 80aa 25bd 83f7 4abe
00000090: 3857 27be 18a2 8ebe 4ef3 9f3d d6b4 80be
000000a0: d397 42be 01ed a5be 3f7b 613e 05ad 013e
000000b0: b0ac a23e 91e9 4bbe 842a c63d dc1d eebd
000000c0: 3b56 183e 97ba 56be 89df c63d 1c1f 6cbd
000000d0: 8e1d b4be d62d 9bbd 1995 0f3e df17 f23c
000000e0: b639 143d 03f4 01be 9eb5 5fbe c3e7 5bbe
000000f0: fbb2 143e 5893 babe b415 743b f076 d83c
00000100: b654 a13d 599d 30bd 2f85 20be 30d1 babd
00000110: a7a0 6c3e b43a 1cbe 6b6d fb3d 9a88 2b3e
00000120: ce1d 6f3d 6370 e2bd befd 06bd 8483 fc3e
00000130: 212f 5bbe ef1b a7bd 3b09 823e 6cea 02be
00000140: d63a 9e3e ab12 44bd 68f5 393e 1316 443e
00000150: 32a5 783d 6688 5abe 6805 00be f7e2 53bd
00000160: 1d04 803e f6db 4fbd 3583 a5bb b5fa 5abe
00000170: d58e 1c3e efad f5bd 8d14 8bbd b8e0 533e
00000180: 5918 aabd 2411 56be e212 423e 10ce 2ebe
00000190: 7ee7 c8bd 0080 b8bd 6225 0a3e 4b40 fd3d
000001a0: f0eb 27bd 4aea ddbd e294 ea3b 842a c9be
000001b0: fac6 0bbe af69 3e3e 142c 953c f789 83bd
000001c0: 47df 7f3d ce6f 3fbe ef93 cc3c b9d6 9bbd
000001d0: bb28 e2be 53c2 9dbd 24c5 a83d ca3f d6bd
000001e0: 71da 073e b6d8 413d 462a 5c3e 8752 493d
000001f0: ecab d4bc f3ae 12be 20d6 06bf a8fb 2a3e
00000200: 3a77 cdbd fc05 cdbd 7662 64bd a9a9 9abd
00000210: ad66 063e b06c 4e3e 5283 76be 1c2a 493d
00000220: ab80 423d 279e c9bc 7816 b4bd d749 283d
00000230: 4205 b8be 58bc 663e 457b d43c 74cb 203e
00000240: 8867 b43d a077 e03d bf45 123e aad5 39be
00000250: 0487 273e 1240 903d 172c 1ebe 8b46 473e
00000260: 986a ecbd 90d3 82bc cdf1 55bd b6e0 f3bd
00000270: f479 72be 61a7 f53e e32e 95bd 6610 bfbd
00000280: 6610 dc3d ef7e 05bd fba4 9b3e f4c0 18be
00000290: 5c56 6f3d 1b19 a23d b302 443e 4d18 583e
000002a0: 0c01 00be 127f 2b3d bb5d 5ebe d312 2abe
000002b0: 7495 0ebe 2443 1b3e 0808 79be 5af5 0ebe
000002c0: 6d31 33be 623f 553e c1c5 bf3a 9fc4 bbbd
000002d0: d3d6 b3be 08ef a13d 2bf5 38bc e0e3 d1be
000002e0: fc08 843c 9ac2 e8bd 05fa 4b3e ce97 5d3c
000002f0: 4b49 153d 045b 66bd c8a4 16be ed8c 12bd
00000300: d47c f0bd ff31 a9be 5dc9 113e 3b6a 8b3e
00000310: e685 5fbe 61e0 95bd ee6c 55bd fe36 633d
00000320: 6c31 10be caaf 873e dead d2be ed89 363e
00000330: ca01 fe3d 8ddb 7cbd 4ddd adbe 2744 82bd
00000340: cf55 f9bd 0a96 e7bd 3896 c8bd 3108 95b9
00000350: 8106 8f3e 8220 b3be 34f2 68bc ae80 7c3e
00000360: 6095 103e 5b26 323c f844 a63e 874a 6f3e
00000370: 4493 96bd 5fcc 5b3d d693 3ebe 051f e1be
00000380: 8b13 88be 7e56 88bd 19a2 17be 2b3b b6bc
00000390: 20a5 08bd 917c 233e c307 8bbe 4ae7 7bbe
000003a0: 690c 8abe adf2 dc3d a7ea 3ebd f3a0 be3d
000003b0: 2289 1abe d90c 063e b617 e4bd 095a 93bd
000003c0: fb15 873c 07be 0cbe 6bf1 483e ff16 803e
000003d0: 4c64 06bd 7f78 62be 7ef7 fbbd 4bf9 84bd
000003e0: ded0 3c3e 9be0 0f3e d646 11bd 4528 a13d
000003f0: 4e4e 333e 7f18 47be 9546 f8bd bcbb 00bd

mlp_extractor.policy_net.0.bias f4 [64]
0.0030845467 0.029211542 -0.011314978 0.021213023 0.029843435 0.019588118 -0.014007898 -0.016034499
0.01778447 0.02321591 -0.012912724 -0.0028544131 -0.011788052 0.0015826913 0.019049693 -0.018352529
0.03828349 -0.02148152 -0.03175273 -0.009240539 0.006644526 -0.004619803 0.016199572 0.026249714
0.023031397 -0.00906446 0.015482419 -0.039376743 0.027364533 -0.003263093 -0.0076254806 -0.042059764
-0.022488166 -0.017240873 0.013877727 -0.0035099548 0.0023771047 -0.007992064 -4.223916e-05 0.0048640925
-0.016062982 -0.00014246156 -0.029171567 -0.00059593143 -0.00047774668 0.0055814395 0.007559769 -0.025777092
0.0066610626 0.010255117 0.016415285 -0.013384779 0.010548334 -0.0034299619 -0.014574793 0.0056148223
0.031275332 0.013652926 0.0035258054 -0.014346379 -0.014270052 0.0018440259 0.0147835165 0.0408543
00000000: 1b26 4a3b 0b4d ef3c 7562 39bc efc6 ad3c
00000010: 387a f43c 4377 a03c 6281 65bc c85a 83bc
00000020: bdb0 913c 4b2f be3c e48f 53bc 1b11 3bbb
00000030: ac22 41bc 4f72 cf3a 1a0e 9c3c 0b58 96bc
00000040: 26cf 1c3d 03fa afbc 270f 02bd a165 17bc
00000050: 53ba d93b b761 97bb f7b4 843c a409 d73c
00000060: 57ac bc3c 1a83 14bc f9a9 7d3c 8249 21bd
00000070: 962b e03c 9ed9 55bb 2bdf f9bb dc46 2cbd
00000080: 1a39 b8bc bb3c 8dbc 685f 633c 4507 66bb
00000090: 33c9 1b3b 25f1 02bc f429 31b8 f762 9f3b
000000a0: 8496 83bc bc61 15b9 36f9 eebc 4838 1cba
000000b0: 137a fab9 82e4 b63b f0b7 f73b 7b2a d3bc
000000c0: 0b45 da3b 1405 283c 5979 863c d54b 5bbc
000000d0: ebd2 2c3c 36c9 60bb 1dcb 6ebc 8bfc b73b
000000e0: 901a 003d 86b0 5f3c 3311 673b 130d 6bbc
000000f0: f0cc 69bc 3eb3 f13a 9036 723c d756 273d

mlp_extractor.policy_net.2.weight f4 [64, 64]
0.016475193 -0.26948196 0.066129245 0.072637655 0.046845622 -0.34546033 -0.11826965 -0.34147966
0.15811226 -0.083764754 0.30191892 -0.14028552 0.3624332 -0.117520384 -0.017633509 -0.09498697
-0.118033625 -0.118352726 0.008720823 0.07609807 0.039430983 0.03969655 0.123538725 -0.37667724
-0.08771381 0.018823037 -0.09698007 -0.023343347 -0.06849798 0.061683625 0.15812142 -0.06998055
0.21882786 -0.07983363 0.3035281 -0.14516112 -0.01432037 0.05157663 0.24895522 0.14618975
0.013284723 0.33278233 -0.15035765 0.09353546 -0.1775031 0.14245774 -0.069858305 0.27612454
0.15154167 -0.011054017 0.21067823 -0.3675524 0.023904718 -0.1175205 -0.15359284 0.20052549
-0.08883418 -0.304316 0.24259026 0.19717865 -0.026517935 0.033638217 0.30350366 -0.23283891
0.13602713 0.09114838 0.044923168 0.52638394 -0.36952704 0.4097704 -0.04809919 0.040454235
0.052935623 0.05671212 0.16328861 -0.03650869 -0.11858804 -0.0069950963 0.044319358 0.20156151
-0.21486321 0.05787534 -0.12255824 0.029757487 -0.005811625 0.0110231945 -0.06307109 -0.14478451
0.04331296 -0.31152725 0.2416947 0.025635883 -0.08001916 0.13781387 -0.15226065 -0.041442152
0.2022513 0.2199025 -0.14012499 0.113435514 -0.13603835 0.20619978 -0.048957314 -0.2755447
0.22521305 0.2138401 0.13535927 -0.021015136 -0.0025156632 -0.14092606 0.015725534 -0.11972042
0.064494886 0.13892806 0.089943394 -0.039326143 0.11640958 -0.08345351 0.0008126404 0.20177324
-0.2196463 0.38293076 0.18307328 0.23474659 -0.3452469 0.10089175 0.26601392 -0.17447786
-0.02669201 -0.28786796 0.136084 -0.020238152 0.2627915 0.38929424 0.028128514 -0.21530764
-0.047500595 0.04933471 -0.19570991 -0.16953819 0.0077832993 0.23298754 0.042420134 -0.007320585
-0.22745459 0.01845587 0.22955465 -0.09490076 0.059966378 0.10362845 0.115939155 -0.23166159
0.10952322 0.063187174 0.26924956 -0.018550225 -0.022913614 0.19387956 0.24862817 -0.056088604
-0.3218318 0.2541695 0.3948177 -0.032765277 -0.27124584 0.13251464 -0.26847818 0.08257882
-0.19055694 -0.20303844 0.10613207 -0.1287786 0.13408174 -0.05417093 0.006544824 -0.33567175
0.20467782 0.06469785 0.13460483 -0.123033725 0.07508026 -0.01232353 -0.10319365 -0.12386806
0.023475489 -0.07499249 0.13478711 -0.22793373 0.2636933 0.36189973 -0.022572786 -0.20148845
-0.014121005 -0.37613308 0.25235865 0.1020915 0.026271138 0.04699679 -0.040273394 0.13190359
-0.017175652 -0.12324853 -0.14713994 -0.10442528 -0.24005395 0.045846127 -0.36700025 -0.32536963
0.14033921 -0.014951557 -0.08880803 0.34663948 -0.025917534 0.059600063 0.1628676 -0.13436371
-0.052630838 -0.102041 -0.09157719 0.16563499 0.017863886 0.22874105 -0.042527586 0.2756177
0.07219963 0.035258565 -0.110703394 0.41760185 0.06559427 0.23075642 0.14845712 -0.004140307
0.09540171 -0.1541165 -0.039927155 0.16858698 -0.38233864 0.31140316 0.043585993 -0.16110858
-0.07889683 -0.13796093 0.15710959 0.11336517 0.038803466 -0.17744192 -0.08494692 0.0406836
0.1390147 -0.10393317 -0.2373 -0.33642757 -0.26929876 0.18368597 0.114087865 0.21240744
00000000: fcf6 863c 8af9 89be c56e 873d 0dc3 943d
00000010: 32e1 3f3d 2de0 b0be 5c37 f2bd 6cd6 aebe
00000020: 2ee8 213e db8c abbd 1e95 9a3e 02a7 0fbe
00000030: d890 b93e 87ae f0bd 2674 90bc 8788 c2bd
00000040: 9dbb f1bd ea62 f2bd c8e1 0e3c 4ed9 9b3d
00000050: 6282 213d da98 223d df01 fd3d d7db c0be
00000060: 4ca3 b3bd c532 9a3c 7d9d c6bd 8c3a bfbc
00000070: ab48 8cbd f8a7 7c3d 95ea 213e f651 8fbd
00000080: 6914 603e d07f a3bd 0968 9b3e 1ea5 14be
00000090: fc9f 6abc 0442 533d 1eee 7e3e c4b2 153e
000000a0: 2ba8 593c 7262 aa3e 5bf7 19be 858f bf3d
000000b0: 5fc3 35be 71e0 113e df11 8fbd 3260 8d3e
000000c0: bd2d 1b3e e81b 35bc 09bc 573e d42f bcbe
000000d0: d4d3 c33c 97ae f0bd 7147 1dbe 8e56 4d3e
000000e0: b2ee b5bd 4fcf 9bbe 9569 783e 33e9 493e
000000f0: 243c d9bc 3ac8 093d d564 9b3e 536d 6ebe
00000100: b24a 0b3e 00ac ba3d 5b01 383d 19c1 063f
00000110: a632 bdbe 6dcd d13e a803 45bd 57b3 253d
00000120: 06d3 583d f84a 683d 2135 273e 238a 15bd
00000130: 49de f2bd 1f37 e5bb 3788 353d 2466 4e3e
00000140: 1a05 5cbe b10e 6d3d d1ff fabd f9c5 f33c
00000150: 726f bebb a19a 343c 6a2b 81bd 6442 14be
00000160: ee68 313d 8080 9fbe d17e 773e 5802 d23c
00000170: 16e1 a3bd 141f 0d3e 37ea 1bbe 3fbf 29bd
00000180: f71a 4f3e 1f2e 613e ed7c 0fbe e150 e83d
00000190: a34d 0bbe 0926 533e 7787 48bd 3214 8dbe
000001a0: 409e 663e e6f8 5a3e 9f9b 0a3e ef27 acbc
000001b0: d3dd 24bb ec4e 10be d6d2 803c fb2f f5bd
000001c0: e515 843d 2843 0e3e 3e34 b83d 7314 21bd
000001d0: 2568 ee3d ade9 aabd 6007 553a a59d 4e3e
000001e0: f6ea 60be 800f c43e 9077 3b3e 6961 703e
000001f0: 34c4 b0be 55a0 ce3d fa32 883e 53aa 32be
00000200: 34a9 dabc 6e63 93be 9b59 0b3e 7bca a5bc
00000210: 9c8c 863e 9351 c73e c56d e63c 9b79 5cbe
00000220: fc8f 42bd 3113 4a3d 2e68 48be 6b9b 2dbe
00000230: 0c0b ff3b 4994 6e3e bcc0 2d3d 85e1 efbb
00000240: dbe9 68be c430 973c 6010 6b3e 545b c2bd
00000250: 4e9f 753d 273b d43d 8271 ed3d b238 6dbe
00000260: b64d e03d 4768 813d 14db 893e a4f6 97bc
00000270: 55b5 bbbc 5d88 463e 6298 7e3e 2abd 65bd
00000280: 23c7 a4be 8122 823e 8c25 ca3e e234 06bd
00000290: bce0 8abe ebb1 073e f975 89be 161f a93d
000002a0: 5c21 43be 4fe9 4fbe c55b d93d 8ade 03be
000002b0: b94c 093e 56e2 5dbd f775 d63b 2bdd abbe
000002c0: 1097 513e 4e80 843d d9d5 093e 1bf9 fbbd
000002d0: aec3 993d a2e8 49bc 3157 d3bd 8aae fdbd
000002e0: ab4f c03c aa95 99bd a205 0a3e 7667 69be
000002f0: cf02 873e ec4a b93e 90ea b8bc fd52 4ebe
00000300: ca5b 67bc 8494 c0be 2735 813e 5915 d13d
00000310: 9236 d73c b57f 403d b7f5 24bd bc11 073e
00000320: f4b3 8cbc ba69 fcbd daab 16be ecdc d5bd
00000330: b4d0 75be 26c9 3b3d 75e7 bbbe d996 a6be
00000340: 15b5 0f3e 60f7 74bc fce0 b5bd bb7a b13e
00000350: 0251 d4bc 321f 743d c4c6 263e a496 09be
00000360: 6f93 57bd dffa d0bd d28c bbbd 389c 293e
00000370: 4957 923c 183b 6a3e 6831 2ebd c31d 8d3e
00000380: 66dd 933d 496b 103d 76b8 e2bd e9cf d53e
00000390: 4a56 863d 694b 6c3e 2505 183e 6aab 87bb
000003a0: f961 c33d b7d0 1dbe a88a 23bd 11a2 2c3e
000003b0: e4c1 c3be 3c70 9f3e 3a87 323d a6f9 24be
000003c0: a994 a1bd a145 0dbe 56e1 203e 002c e83d
000003d0: 62f0 1e3d 56b3 35be a7f8 adbd d9a3 263d
000003e0: df59 0e3e eada d4bd c5fe 72be 3c40 acbe
000003f0: 87e1 89be 2d18 3c3e e6a6 e93d 5681 593e

mlp_extractor.policy_net.2.bias f4 [64]
-0.0021087576 -0.011021949 0.008203736 -0.0006796285 -0.024698146 0.006112063 -0.0015589222 0.030701289
0.0069902726 0.016299466 -0.020640973 0.010065251 0.024899108 0.030129265 0.02983931 -0.03261467
-0.013621346 0.0074410373 -0.0099121705 -0.019376988 0.03937417 -0.005474266 0.0009233677 -0.019139007
0.003980229 0.022304827 0.009135533 -0.021687882 -0.008027774 0.0067276573 -0.00075844675 0.010111037
0.007147922 0.01814941 0.030322017 -0.0064494237 0.017589336 0.016424756 -0.032341 0.017209701
0.013007326 0.021290815 0.0130170975 -0.027948352 -0.005074928 -0.017393587 -0.00835895 0.022096915
-0.016993552 -0.009175929 0.015608283 -0.0010631717 0.018427083 0.027005376 0.016201254 -0.018087644
0.02337378 0.034984227 -0.016884593 -0.00015670693 0.0018169993 0.03651834 -0.0016761863 -0.018514259
00000000: 1533 0abb 6895 34bc f668 063c 1929 32ba
00000010: c453 cabc b347 c83b c054 ccba 4581 fb3c
00000020: a80e e53b 7586 853c 4217 a9bc b9e8 243c
00000030: 37f9 cb3c a6d1 f63c 9271 f43c f696 05bd
00000040: 112c 5fbc f2d3 f33b a866 22bc 7dbc 9ebc
00000050: cf46 213d 7961 b3bb 280e 723a 68c9 9cbc
00000060: 956c 823b 9db8 b63c 34ad 153c c9aa b1bc
00000070: ed86 03bc ae73 dc3b 80d2 46ba c3a8 253c
00000080: 1e39 ea3b 12ae 943c e165 f83c b055 d3bb
00000090: 8317 903c 368d 863c ff77 04bd 5cfb 8c3c
000000a0: ae1c 553c 136a ae3c aa45 553c f1f3 e4bc
000000b0: 954b a6bb ff7c 8ebc faf3 08bc 9704 b53c
000000c0: 1036 8bbc a356 16bc e2b9 7f3c 1f5a 8bba
000000d0: 65f4 963c 613a dd3c 7eb8 843c 8a2c 94bc
000000e0: 5f7a bf3c 9f4b 0f3d 8f51 8abc b251 24b9
000000f0: 6128 ee3a 4194 153d 7bb3 dbba 37ab 97bc

mlp_extractor.value_net.0.weight f4 [64, 42]
0.103862286 -0.0070919236 0.009627513 -0.026310535 -0.1999239 -0.16847743 -0.19770616 -0.15096846
0.17487518 0.18035747 -0.19968444 -0.29347047 -0.124023676 0.1960704 0.050660208 0.07256099
-0.026832543 -0.1828749 0.12924232 0.30869505 0.05684659 0.031291857 0.0028266646 -0.016605278
0.3185956 -0.21085669 0.20381764 0.25587574 0.003013 -0.19170327 -0.09097416 -0.3198992
0.07436116 0.07478889 0.051567346 0.044121295 -0.49538937 -0.059668913 -0.00858981 0.14200635
-0.09956139 0.1531065 0.19067663 -0.31833944 -0.05007046 -0.11690906 -0.10806181 -0.1576579
0.22655374 0.031126758 0.068236925 0.24823982 0.03190035 -0.13967414 0.0047796685 0.2568245
0.42834836 0.07537948 -0.10731492 0.19285905 0.082800545 0.011672323 0.2799796 0.015354245
-0.15908058 0.18402131 -0.027604293 0.28136742 -0.13705364 -0.13372731 -0.24899068 0.045044024
-0.14855286 0.14581092 0.16021994 0.22431147 0.07306116 -0.05644057 0.14000332 -0.19744827
-0.10044012 -0.084450394 -0.09154916 -0.34043333 0.16888347 -0.22661035 0.10405858 0.016919764
0.06172816 0.116028346 -0.061372653 -0.05677435 0.1911663 -0.045993514 0.059433438 0.13756144
-0.27573842 0.100700915 -0.032976493 -0.095381856 0.011174292 -0.20660523 0.24525152 -0.081138395
0.090516105 -0.13512385 0.068306 0.24824493 0.027343554 0.076079816 0.20870462 -0.03615247
-0.032033067 -0.26129213 0.014831353 0.0816639 -0.35118964 0.00859871 -0.028401991 -0.00095436705
0.08067024 -0.15725614 0.020985017 -0.03693636 0.5979625 0.041927617 -0.2495816 0.1702424
-0.11093819 0.50877595 -0.1814745 -0.24985994 0.0136410585 0.21422385 0.14391018 0.16868968
0.033140834 0.14399718 -0.13318215 -0.043815866 0.08422982 0.16274065 0.059328657 0.23913752
-0.059947357 -0.14357811 0.2891679 0.17308144 0.013506438 -0.1695711 0.22841914 0.05045254
-0.38223907 0.19125223 0.049029965 -0.06652688 -0.1885803 0.2973783 0.13475375 -0.1424365
0.19699307 -0.18908048 -0.22187948 0.19905168 0.12415459 -0.15008548 0.14164506 0.02452817
-0.17954603 -0.2579308 0.12730365 -0.10247003 -0.15293285 -0.017368361 -0.011409926 0.07627181
-0.02277073 0.08563672 -0.115350164 0.11974325 -0.071655005 -0.08093495 0.11910574 0.088979386
0.4184235 0.019799508 -0.13275471 -0.06480622 -0.21975918 0.2369452 -0.111938916 0.298926
0.19098711 0.099980496 0.023935918 0.053981245 -0.018703572 0.17299253 0.17070359 -0.18700328
0.2493537 0.11923003 0.29939225 -0.2693672 0.06287601 -0.01454828 -0.055374224 -0.13286726
0.4083533 0.15541868 -0.17182292 0.1383387 0.045130823 0.06533129 0.1708884 -0.091063336
-0.12689109 -0.0035249211 0.14954454 -0.029137108 -0.06096044 -0.06786689 -0.011519503 -0.05432584
-0.17178695 -0.052818935 -0.06524831 -0.08188995 0.1954047 -0.1496683 -0.119889125 0.031447712
0.15093301 0.32995528 -0.025125707 0.35203427 0.18108156 0.28435516 0.0047755246 -0.24982542
0.017706849 -0.32026216 0.18988068 0.008053719 0.11658399 0.08187515 -0.19282857 -0.28794232
-0.07171285 0.062161494 -0.24918318 0.22951387 0.22429429 -0.17835814 0.2963555 -0.053314723
00000000: c0b5 d43d 5e63 e8bb b7bc 1d3c 3189 d7bc
00000010: dab8 4cbe 5985 2cbe 7c73 4abe 7a97 1abe
00000020: 7b12 333e a1af 383e 147a 4cbe c341 96be
00000030: 2000 febd aec6 483e 1481 4f3d db9a 943d
00000040: eccf dbbc 8f43 3bbe 1958 043e 470d 9e3e
00000050: f8d7 683d e42b 003d 903f 393b cb07 88bc
00000060: f61e a33e d1ea 57be 92b5 503e 2502 833e
00000070: c075 453b dd4d 44be a950 babd d4c9 a3be
00000080: aa4a 983d eb2a 993d 4838 533d 88b8 343d
00000090: ada3 fdbe 6467 74bd 46bc 0cbc 1d6a 113e
000000a0: d8e6 cbbd f3c7 1c3e bc40 433e 63fd a2be
000000b0: af16 4dbd 046e efbd 834f ddbd 1371 21be
000000c0: b4fd 673e 8bfd fe3c cdbf 8b3d 9432 7e3e
000000d0: f1a9 023d bd06 0fbe c49e 9c3b 807e 833e
000000e0: 7a50 db3e 8f60 9a3d edc7 dbbd d87c 453e
000000f0: 5593 a93d 453d 3f3c 7c59 8f3e 5f90 7b3c
00000100: 05e6 22be 1570 3c3e 6622 e2bc 640f 903e
00000110: ca57 0cbe d0ef 08be 6af7 7ebe 1580 383d
00000120: 3e1e 18be 754f 153e b210 243e e8b1 653e
00000130: 17a1 953d 3a2e 67bd 085d 0f3e e12f 4abe
00000140: 8db3 cdbd 54f4 acbd 207e bbbd 474d aebe
00000150: caef 2c3e 8b0c 68be aa1c d53d 519b 8a3c
00000160: abd6 7c3d 45a0 ed3d e461 7bbd 398c 68bd
00000170: 19c1 433e b263 3cbd 7a70 733d e8dc 0c3e
00000180: 962d 8dbe 483c ce3d 5c12 07bd 9057 c3bd
00000190: 6114 373c 5290 53be 3723 7b3e e32b a6bd
000001a0: 8260 b93d e85d 0abe 04e4 8b3d eb33 7e3e
000001b0: 97ff df3c bccf 9b3d aab6 553e 9d14 14bd
000001c0: 1b35 03bd 15c8 85be 34ff 723c 673f a73d
000001d0: 21cf b3be 9be1 0c3c 4bab e8bc 7d2e 7aba
000001e0: 7036 a53d c107 21be c5e8 ab3c 954a 17bd
000001f0: 1214 193f 4bbc 2b3d 5292 7fbe 0654 2e3e
00000200: 9033 e3bd 243f 023f 74d4 39be 49db 7fbe
00000210: bf7e 5f3c 7f5d 5b3e 315d 133e fdbc 2c3e
00000220: afbe 073d ff73 133e e760 08be 4478 33bd
00000230: af80 ac3d 7ca5 263e 9b02 733d 77e0 743e
00000240: 5c8b 75bd 2406 13be d10d 943e 433c 313e
00000250: 1b4a 5d3c 0ca4 2dbe b5e6 693e 53a7 4e3d
00000260: d7b4 c3be a0d7 433e a5d3 483d 3f3f 88bd
00000270: 321b 41be f841 983e e3fc 093e e0da 11be
00000280: 8db8 493e 509e 41be 6034 63be 34d4 4b3e
00000290: c344 fe3d 02b0 19be 670b 113e 4def c83c
000002a0: eada 37be 810f 84be e35b 023e cfdb d1bd
000002b0: 6e9a 1cbe 1848 8ebc b3f0 3abc 6534 9c3d
000002c0: af89 babc 4e62 af3d b53c ecbd f33b f53d
000002d0: dcbf 92bd 39c1 a5bd b6ed f33d d33a b63d
000002e0: 9b3b d63e 9432 a23c daf0 07be 20b9 84bd
000002f0: 8d08 61be c3a1 723e 3b40 e5bd d40c 993e
00000300: 2092 433e 93c2 cc3d 4215 c43c 701b 5d3d
00000310: 3c38 99bc f424 313e eccc 2e3e ca7d 3fbe
00000320: 9456 7f3e e02e f43d f149 993e 7fea 89be
00000330: 23c5 803d e95b 6ebc 15d0 62bd 5b0e 08be
00000340: af13 d13e 1326 1f3e 59f2 2fbe a9a8 0d3e
00000350: 19db 383d 69cc 853d 5efd 2e3e 6a7f babd
00000360: bdef 01be 5d02 67bb 3422 193e f2b0 eebc
00000370: a8b1 79bd ccfd 8abd 4cbc 3cbc c684 5ebd
00000380: ebe8 2fbe ab58 58bd e8a0 85bd ebb5 a7bd
00000390: 2b18 483e a642 19be 6e88 f5bd 51cf 003d
000003a0: 2f8e 1a3e e6ef a83e 6dd4 cdbc d63d b43e
000003b0: 726d 393e 0097 913e 017c 9c3b 3cd2 7fbe
000003c0: f40d 913c 67f9 a3be 1570 423e bff3 033c
000003d0: 96c3 ee3d 29ae a73d da74 45be 2d6d 93be
000003e0: 30de 92bd 0d9d 7e3d e029 7fbe af05 6b3e
000003f0: 67ad 653e 84a3 36be e8bb 973e 8a60 5abd

mlp_extractor.value_net.0.bias f4 [64]
0.0132827535 -0.007292704 -0.0033545245 0.0017998944 0.002947411 0.005457921 0.016143328 0.02984107
-0.0011687075 -0.0029269375 0.010695302 -0.00859811 -0.016160484 -0.01692411 -0.025355127 -0.02037651
-0.015507619 0.0068042586 -0.002649637 0.01858545 0.0110128075 0.009879575 -0.004122621 0.0068902434
-0.0024541118 0.0098632015 0.013615534 0.0033551431 -0.0055450196 -0.0065263454 0.016757723 0.0021147316
-0.0138919195 -0.016093748 -0.0062314137 -0.0056272335 0.008925378 -0.012324532 0.0034761652 0.019416241
-0.02020699 0.0048733875 -0.0050376807 -0.008048149 0.0034300615 -0.0077315387 0.020400537 0.021992669
-0.023548992 0.0011103762 0.0042954967 0.004186067 -0.009016889 -0.0064077782 0.013519417 0.0015602218
0.0315748 -0.005793546 0.031610876 0.021362286 -0.028172346 0.0015952435 -0.020659855 -0.019291962
00000000: e89f 593c a3f7 eebb 95d7 5bbb 6fea eb3a
00000010: 5a29 413b 5cd8 b23b 033f 843c 4275 f43c
00000020: 512f 99ba ddd1 3fbb 593b 2f3c 16df 0cbc
00000030: fe62 84bc 6ea4 8abc 8eb5 cfbc a4ec a6bc
00000040: ab13 7ebc 42f6 de3b 88a5 2dbb 8340 983c
00000050: 106f 343c f1dd 213c 0d17 87bb 8dc7 e13b
00000060: 2ad5 20bb 4499 213c b013 5f3c f6e1 5b3b
00000070: ffb2 b5bb f4da d5bb 7e47 893c 4f97 0a3b
00000080: ef9a 63bc 09d7 83bc e330 ccbb a864 b8bb
00000090: c03b 123c d5ec 49bc 60d0 633b cf0e 9f3c
000000a0: 2189 a5bc f0b0 9f3b 2113 a5bb 62dc 03bc
000000b0: e2ca 603b d958 fdbb 071f a73c f829 b43c
000000c0: d1e9 c0bc 0b8a 913a 3dc1 8c3b 462b 893b
000000d0: 93bb 13bc 57f8 d1bb 8b80 5d3c 5b80 cc3a
000000e0: 9454 013d c9d7 bdbb 687a 013d f6ff ae3c
000000f0: b1c9 e6bc 7d17 d13a db3e a9bc 2d0a 9ebc

mlp_extractor.value_net.2.weight f4 [64, 64]
-0.16163814 -0.21390946 -0.20921928 -0.09066367 -0.23164403 -0.089637816 0.0953788 0.061424997
0.096305504 -0.03608402 0.076508604 -0.07073701 0.3077189 0.3050931 -0.2603894 -0.08731678
-0.053153206 0.12357386 0.15069629 0.23579523 -0.21525747 0.23036654 0.2070729 -0.26295897
0.15536433 -0.13052894 -0.07599296 0.083930895 0.06895719 0.088592365 0.056694884 0.13790873
0.065835275 0.2135637 0.16011932 0.18143617 -0.32002547 -0.039373092 0.07817881 -0.48802236
0.006251581 0.25865003 -0.022122443 -0.13428907 0.069828 0.22022867 -0.036718722 -0.20950563
0.08753097 -0.015917424 -0.03210652 0.1450035 -0.13393907 -0.088108316 0.22739616 0.20950903
0.19402346 0.30106583 0.071675815 0.10994411 -0.2894649 0.002773411 -0.012283389 -0.25912294
0.10371758 0.028783591 0.08261397 0.03575879 -0.22264022 -0.17600438 -0.027760517 0.085488304
0.23141548 0.2551473 -0.13817306 0.057227276 0.1990194 -0.03288338 0.30277348 0.030475274
0.15689445 0.052843668 -0.14910902 -0.046976663 0.14646877 -0.1514244 0.08706136 -0.27140662
-0.15968373 -0.2102557 0.041957613 0.073002994 -0.07019301 -0.047318347 0.005071744 -0.043563534
0.13369195 -0.0038152607 0.23063932 0.0109857395 0.15698002 -0.029780712 0.019855091 0.029847743
0.16041392 -0.33824626 -0.36503056 -0.10342124 0.084000625 0.08396624 -0.13051452 -0.19657472
0.47788936 -0.3276018 -0.085836165 -0.2551743 0.14457916 0.0008950638 -0.13487127 0.19418028
0.13661642 0.4206947 -0.1973822 -0.25796676 0.17031015 -0.12609608 0.051778544 0.1439681
0.17844129 -0.058536615 -0.21781237 -0.23064043 0.14165495 0.18123256 -0.09349776 0.06647833
0.016331585 0.241403 -0.18280405 -0.24987762 0.12093328 0.12595214 -0.029088786 -0.043206852
0.04137057 0.17090854 -0.08704506 0.12141572 -0.06059068 -0.36404815 0.15311806 -0.25247827
0.32245213 -0.1505549 -0.077512085 -0.050635144 -0.12383783 0.069975205 -0.24888322 0.46744642
-0.15806386 -0.18085556 0.22456281 -0.068505764 0.075292245 0.18266188 -0.34069 0.17539181
-0.015333038 -0.07218503 -0.21974172 -0.038965598 -0.10692419 0.12774584 0.12038202 -0.023812866
-0.40779465 0.071397714 -0.24940625 0.003948669 0.061046693 -0.043920532 0.10733343 -0.10075002
-0.043376755 -0.08511573 0.19941688 0.16074057 0.24995673 -0.27542192 0.19453782 0.055265084
0.005078019 0.27404234 -0.2898448 -0.02003214 0.10443322 0.25153047 -0.16457961 0.0991222
0.016015675 0.18457656 0.19538614 -0.086402014 -0.05938373 -0.20195791 0.13834432 -0.21008216
-0.05963092 0.36673942 -0.046281207 -0.19246444 -0.10203908 0.24788241 0.010233983 -0.033353306
0.07338238 0.075336814 -0.05506861 -0.11336242 -0.060930252 0.16982736 0.059733827 -0.50812334
0.09395876 0.129762 0.33082658 0.050652638 -0.045058426 -0.29086173 -0.03766674 0.06424758
-0.29093805 0.008510465 -0.16678116 -0.39511615 0.028355233 -0.12938443 -0.0016227328 -0.06099119
-0.078323364 -0.1215151 -0.04654745 -0.11784731 0.41252622 0.028466422 -0.091092624 -0.062327847
0.009501933 -0.055545326 0.17531252 0.097572304 -0.16992494 0.19518647 0.24213582 -0.1308412
00000000: 7884 25be 150b 5bbe 943d 56be e0ad b9bd
00000010: 1834 6dbe 0894 b7bd f655 c33d c798 7b3d
00000020: d23b c53d d6cc 13bd 8bb0 9c3d 91de 90bd
00000030: 558d 9d3e 2a35 9c3e c251 85be 24d3 b2bd
00000040: 2db7 59bd 4b14 fd3d 2150 1a3e 4e74 713e
00000050: 746c 5cbe 35e5 6b3e eb0a 543e 8fa2 86be
00000060: d417 1f3e 61a9 05be 32a2 9bbd f6e3 ab3d
00000070: 6d39 8d3d ea6f b53d e538 683d f237 0d3e
00000080: a5d4 863d 71b0 5a3e 52f6 233e 67ca 393e
00000090: 61da a3be ae45 21bd 361c a03d 11de f9be
000000a0: 10da cc3b c76d 843e 203a b5bc 1383 09be
000000b0: fc01 8f3d a083 613e 5f66 16bd a588 56be
000000c0: 7043 b33d 4265 82bc 2082 03bd cc7b 143e
000000d0: 5327 09be 2272 b4bd 8ada 683e 8989 563e
000000e0: 16ae 463e 4d25 9a3e c5ca 923d 612a e13d
000000f0: be34 94be 1ec2 353b 4540 49bc c3ab 84be
00000100: e269 d43d 91cb eb3c 8331 a93d cf77 123d
00000110: ccfb 63be 7e3a 34be 066a e3bc 7e14 af3d
00000120: 2ef8 6c3e aba2 823e 3d7d 0dbe 2667 6a3d
00000130: becb 4b3e b9b0 06bd 2005 9b3e 48a7 f93c
00000140: f0a8 203e 9a72 583d 09b0 18be 9a6a 40bd
00000150: e9fb 153e ff0e 1bbe 3a4d b23d cff5 8abe
00000160: 2284 23be 454d 57be bfdb 2b3d 9882 953d
00000170: 5ac1 8fbd e2d0 41bd df30 a63b ad6f 32bd
00000180: 8be6 083e 7409 7abb b72c 6c3e 88fd 333c
00000190: 5fbf 203e aef6 f3bc 25a7 a23c 4183 f43c
000001a0: 8c43 243e 9d2e adbe 49e5 babe 84ce d3bd
000001b0: 8508 ac3d 7ef6 ab3d 99a5 05be e24a 49be
000001c0: eaad f43e 6cbb a7be dfca afbd 35a6 82be
000001d0: 8f0c 143e b7a2 6a3a b21b 0abe 32d7 463e
000001e0: 2de5 0b3e 4c65 d73e 8f1e 4abe 3814 84be
000001f0: c965 2e3e 551f 01be bd15 543d 606c 133e
00000200: 50b9 363e 17c4 6fbd 350a 5fbe 012d 6cbe
00000210: ff0d 113e 0795 393e c17b bfbd ca25 883d
00000220: d1c9 853c 5932 773e fc30 3bbe ebdf 7fbe
00000230: deab f73d 99f9 003e 9b4b eebc abf9 30bd
00000240: 3074 293d a602 2f3e ae44 b2bd cea8 f83d
00000250: ef2d 78bd 8564 babe fbca 1c3e d544 81be
00000260: 7218 a53e 102b 1abe a8be 9ebd cc66 4fbd
00000270: b09e fdbd 294f 8f3d 3edb 7ebe 2355 ef3e
00000280: 7edb 21be 3332 39be cbf3 653e c04c 8cbd
00000290: d232 9a3d b70b 3b3e eb6e aebe e999 333e
000002a0: 6c37 7bbc bfd5 93bd f903 61be 649a 1fbd
000002b0: 12fb dabd cecf 023e d98a f63d 3313 c3bc
000002c0: 76ca d0be f738 923d 5a64 7fbe d663 813b
000002d0: 190c 7a3d 04e6 33bd a1d1 db3d 0756 cebd
000002e0: d3ab 31bd 2851 aebd f033 4c3e 2d99 243e
000002f0: a8f4 7f3e 1a04 8dbe ec34 473e a45d 623d
00000300: 8365 a63b 474f 8c3e 8a66 94be 711a a4bc
00000310: 16e1 d53d 9ac8 803e 8f87 28be 9400 cb3d
00000320: 4e33 833c a301 3d3e 4e13 483e 8af3 b0bd
00000330: 5b3c 73bd 0ece 4ebe 22aa 0d3e c71f 57be
00000340: 8d3f 74bd 45c5 bb3e 5d91 3dbd 6615 45be
00000350: ddf9 d0bd e3d4 7d3e 70ac 273c 7a9d 08bd
00000360: 8049 963d 304a 9a3d 9f8f 61bd 8e2a e8bd
00000370: 0092 79bd 39e7 2d3e 75ab 743d 5f14 02bf
00000380: 736d c03d 54e0 043e 1a62 a93e 2479 4f3d
00000390: 2f8f 38bd d4eb 94be 7148 1abd 3c94 833d
000003a0: d5f5 94be 7a6f 0b3c aec8 2abe aa4c cabe
000003b0: 3c49 e83c 5a7d 04be e1b1 d4ba e6d1 79bd
000003c0: 0068 a0bd e9dc f8bd 8aa8 3ebd ee59 f1bd
000003d0: a336 d33e 6a32 e93c c58e babd 7c4b 7fbd
000003e0: ffad 1b3c 7f83 63bd 2085 333e fdd3 c73d
000003f0: ce00 2ebe f6de 473e 74f2 773e 3cfb 05be

mlp_extractor.value_net.2.bias f4 [64]
0.0036202667 -0.012446793 0.00035360554 0.008727859 -0.012977155 0.014955372 -0.020638049 0.013170483
-0.00040354836 0.013006458 -0.011438754 -0.0059592687 0.0056988965 0.008568386 -0.01750054 0.002728743
-0.0004301472 0.0049988455 -0.013849406 0.006163157 0.002457523 0.0079471 0.003106354 0.005584055
0.0038756486 -0.008351017 0.005283499 -0.007005422 -0.017995324 0.007223894 0.013034249 0.008570406
-0.002582542 -7.8410376e-05 0.007510864 0.003145804 -0.0037278945 0.0043047466 0.005197156 0.01564299
-0.0022511852 0.010883945 -0.0033090077 -0.0048394166 0.010554846 0.0018139719 0.012703631 0.007396571
0.0071864952 -0.0014970759 -0.003682763 -0.0028039853 0.015852468 -0.005717471 0.0076544983 0.012808275
0.0037968867 -0.0040016253 0.0026963896 -0.012717412 0.014649606 0.0097782 0.0036370382 0.00082261534
00000000: ff41 6d3b a2ed 4bbc 2264 b939 4bff 0e3c
00000010: 229e 54bc 6007 753c 2011 a9bc 02c9 573c
00000020: 5893 d3b9 0a19 553c 9d69 3bbc f845 c3bb
00000030: cfbd ba3b 6a62 0c3c 4b5d 8fbc b6d4 323b
00000040: 6185 e1b9 5bcd a33b 9ee8 62bc 4ff4 c93b
00000050: 650e 213b 8e34 023c f993 4b3b 73fa b63b
00000060: 98fe 7d3b b4d2 08bc 3421 ad3b bd8d e5bb
00000070: ee6a 93bc 6ab6 ec3b 9a8d 553c e36a 0c3c
00000080: dd3f 29bb 4070 a4b8 b21d f63b d529 4e3b
00000090: b14f 74bb d50e 8d3b e84c aa3b ba25 803c
000000a0: 9f88 13bb 9352 323c f0db 58bb f893 9ebb
000000b0: 3cee 2c3c ccc2 ed3a e422 503c ef5e f23b
000000c0: b17c eb3b 8839 c4ba 835a 71bb 11c3 37bb
000000d0: 09dd 813c 9f59 bbbb 96d2 fa3b cdd9 513c
000000e0: 30d5 783b 1120 83bb e9b5 303b b15c 50bc
000000f0: e704 703c be34 203c 605b 6e3b c8a4 573a

action_net.weight f4 [8, 64]
0.009334852 0.008787771 -0.025956253 0.000370554 0.016633593 -0.012715647 -0.014127507 -0.0006854875
-0.0046706833 0.0027175234 0.0004356827 -0.008315504 -0.008218113 0.008755423 -0.002529501 0.0083690565
-0.007033538 -0.0029929075 -0.002165487 0.0030886931 -0.005426494 0.0057496224 0.00122309 0.011911764
-0.010786963 0.003911623 -0.008010782 -0.010180889 0.004411069 0.00402166 0.015082267 -0.0039888774
0.00783096 -0.0010274517 0.002262893 0.015072292 0.00039987094 0.010606576 0.0019032597 0.0028599845
-0.010307917 -0.013804807 -0.009200464 -0.0074355337 0.0024038907 0.011105265 -0.006087703 0.0018723265
-0.008967435 -0.004197288 -0.010321762 -0.015099367 0.0055557434 0.0107061975 -0.004155232 0.001194934
-0.0047934176 0.0072466875 0.00087872613 0.0031155965 0.018679183 -0.009589641 0.00039228966 0.0026076178
-0.0061082616 0.007204511 -0.009263022 -0.008829299 0.0041794986 0.0011760328 -0.0071184244 0.0032069534
0.011414865 0.0003741774 0.0005289324 -0.0026718613 0.012159993 0.0029188814 0.014733445 0.0029451523
-0.0107411835 -0.007924492 -0.0023267067 -0.0036514085 -0.021954281 0.0114398245 -0.0077451975 0.0014659404
-0.0013079593 -0.01332736 -0.010405059 -0.0018609222 -0.007836758 -0.009857436 0.0039550248 0.0015331807
0.009542938 -0.00483151 0.012936802 0.00088159484 0.009065859 -0.00021765752 -0.007279761 0.010794545
-0.015962733 0.0047267354 -0.012015465 -0.0026047505 -0.0038608126 0.008057955 -0.002978501 -0.00010795727
0.011149347 4.46766e-05 -0.004837668 -0.008233193 0.003297086 0.0028602167 0.008466892 -0.0079532275
-0.009657491 -0.017408194 -0.016174246 0.009439637 0.002916998 0.002755111 0.0036548288 0.0062672086
-0.02292623 0.0011922804 -0.0099970335 -0.0057247574 0.008370346 -0.0014943855 -0.019859634 -0.012587254
0.0011721172 0.0034154444 0.009667886 -0.009452016 -0.013460112 -0.018864935 -0.009641501 0.0045904247
0.0074678287 -0.0047899587 0.0026777594 -0.01571742 -0.0025582209 -0.027297068 0.0042720973 0.004367166
0.018084032 0.0011281826 -0.0037794604 0.0022002507 0.00661854 0.022408428 -7.640379e-05 0.004613247
0.002694012 0.016028663 0.0027007444 0.009553046 -0.006961042 -0.016689163 0.0074585024 0.0048376927
-0.003684745 0.003430528 -0.003290343 -0.0007373599 0.010960299 0.0139123285 0.008256809 -0.004039083
-0.012580131 -0.0053212745 -0.006178524 -0.010294839 -0.005252362 0.012387261 -0.009375524 0.0020162237
-0.007909183 -0.009273108 0.0023292366 -0.0009962437 -0.010063047 0.0045197257 -0.016996952 0.00705629
0.017355522 0.013710682 0.0069854595 -0.01879809 0.003898007 0.015141198 0.018302854 0.0079432875
-0.017440973 -0.00042048402 -0.022694161 -0.0015889858 0.016792057 -0.004588522 -0.0015303567 0.008472824
-0.012308802 0.014823527 -9.020396e-05 0.0035106037 0.007025475 0.010760321 -0.013771537 0.0006372711
-0.015405215 0.014144549 0.006050247 0.005996361 0.0126266545 0.011606872 0.009862734 -0.016353725
-0.0062820734 -0.0033636603 -0.003698518 -0.011018226 0.012672873 0.0076465816 0.016061982 0.003545756
0.0074113375 -0.019105658 0.004629903 0.0025829482 0.006066319 -0.000377951 0.00270467 0.00020885884
-0.031567685 0.0056218198 -0.016204268 0.01931764 0.0046145646 -0.015834913 0.009248151 -0.0044529783
-0.01093478 -0.015164969 0.007536574 0.0029134715 -0.011437476 -0.017275868 -0.0007729863 0.018656958
00000000: 35f1 183c 95fa 0f3c 35a2 d4bc ea46 c239
00000010: 2c43 883c 4a55 50bc 0f77 67bc 4ab2 33ba
00000020: 880c 99bb 7a18 323b 586c e439 c03d 08bc
00000030: 44a5 06bc e872 0f3c fcc5 25bb 5e1e 093c
00000040: 9879 e6bb a824 44bb d8ea 0dbb ac6b 4a3b
00000050: bbd0 b1bb 5467 bc3b 1750 a03a 8f29 433c
00000060: cdbb 30bc 122d 803b a83f 03bc becd 26bc
00000070: bb8a 903b 21c8 833b 9d1b 773c 21b5 82bb
00000080: 6d4d 003c 8fab 86ba 0b4d 143b c6f1 763c
00000090: c5a5 d139 34c7 2d3c cc76 f93a 946e 3b3b
000000a0: 8ae2 28bc 8f2d 62bc 8bbd 16bc c7a5 f3bb
000000b0: 988a 1d3b dbf2 353c 5b7b c7bb da68 f53a
000000c0: 26ec 12bc 6789 89bb 9c1c 29bc 5663 77bc
000000d0: f40c b63b 0c69 2f3c 9d28 88bb 559f 9c3a
000000e0: 1a12 9dbb 9f75 ed3b 505a 663a 092f 4c3b
000000f0: 1605 993c df1d 1dbc 3aac cd39 91e4 2a3b
00000100: d027 c8bb d213 ec3b eec3 17bc c4a8 10bc
00000110: 2df4 883b 1d25 9a3a ac41 e9bb c02b 523b
00000120: 6a05 3b3c 3e2d c439 0da8 0a3a 651a 2fbb
00000130: b53a 473c b44a 3f3b 8c64 713c 7503 413b
00000140: cafb 2fbc bad5 01bc a97b 18bb 784c 6fbb
00000150: 77d9 b3bc 1a6e 3b3c 6dcb fdbb cc24 c03a
00000160: d56f abba 005b 5abc fb79 2abc 30ea f3ba
00000170: bf65 00bc 1581 21bc 2799 813b 02f5 c83a
00000180: fc59 1c3c a551 9ebb e1f4 533c d41a 673a
00000190: f888 143c ff3a 64b9 108b eebb 9adb 303c
000001a0: 47c4 82bc bbe2 9a3b 83dc 44bc 76b4 2abb
000001b0: b005 7dbb 8305 043c f432 43bb 1e67 e2b8
000001c0: c0ab 363c 2263 3b38 4d85 9ebb 84e4 06bc
000001d0: ed13 583b 7972 3b3b b8b8 0a3c 414e 02bc
000001e0: 743a 1ebc a19b 8ebc da7f 84bc b5a8 1a3c
000001f0: 1b2b 3f3b 188f 343b da85 6f3b 285d cd3b
00000200: cacf bbbc 4b46 9c3a 99ca 23bc bf96 bbbb
00000210: c723 093c 42df c3ba acb0 a2bc c53a 4ebc
00000220: baa1 993a a6d5 5f3b 0e66 1e3c a1dc 1abc
00000230: cd87 5cbc a38a 9abc 63f7 1dbc 466b 963b
00000240: b0b4 f43b 16f5 9cbb 597d 2f3b d2c1 80bc
00000250: d3a7 27bb 1a9e dfbc f3fc 8b3b 721a 8f3b
00000260: f724 943c 87df 933a d3b0 77bb 1532 103b
00000270: 56e0 d83b e191 b73c f93a a0b8 b82a 973b
00000280: 058e 303b 8b4e 833c f9fe 303b 6184 1c3c
00000290: 7419 e4bb b6b7 88bc 7466 f43b 8285 9e3b
000002a0: c37b 71bb b6d2 603b cca2 57bb 634b 41ba
000002b0: d392 333c 89f0 633c 9147 073c 495a 84bb
000002c0: e51c 4ebc 165e aebb 3775 cabb afab 28bc
000002d0: 021c acbb f0f3 4a3c cc9b 19bc 9f22 043b
000002e0: 8595 01bc 3cee 17bc 1ba6 183b 6494 82ba
000002f0: 7adf 24bc 351a 943b 313d 8bbc 7338 e73b
00000300: 2b2d 8e3c c5a2 603c 48e6 e43b 74fe 99bc
00000310: b575 7f3b ca12 783c deef 953c 9024 023c
00000320: 5fe0 8ebc 6974 dcb9 1be9 b9bc 8445 d0ba
00000330: 7f8f 893c 505b 96bb 4096 c8ba 99d1 0a3c
00000340: dcaa 49bc 61de 723c e22b bdb8 2812 663b
00000350: f535 e63b 0f4c 303c 03a2 61bc 8a0e 273a
00000360: 2866 7cbc 8abe 673c 2641 c63b 1f7d c43b
00000370: 07e0 4e3c c02a 3e3c 4e97 213c 3ff8 85bc
00000380: dad9 cdbb db70 5cbb d662 72bb ca85 34bc
00000390: e2a1 4f3c 2d90 fa3b 6b94 833c ea5f 683b
000003a0: ceda f23b 7883 9cbc 71b6 973b ae46 293b
000003b0: f9c7 c63b b927 c6b9 d540 313b 1e01 5b39
000003c0: 1e4d 01bd 3e37 b83b d0be 84bc 0740 9e3c
000003d0: c635 973b 38b8 81bc 8f85 173c 4aea 91bb
000003e0: cb27 33bc 7d76 78bc 5df5 f63b f1ef 3e3b
000003f0: 4064 3bbc 1f86 8dbc 3ca2 4aba 7ad6 983c

action_net.bias f4 [8]
0.002116615 -0.0100499755 -0.005108105 -0.013223574 0.036013592 -0.0015661257 0.0077869915 0.0071134144
00000000: e8b6 0a3b a7a8 24bc e461 a7bb b0a7 58bc
00000010: fd82 133d 7546 cdba 052a ff3b a517 e93b

value_net.weight f4 [1, 64]
-0.098341964 -0.1712957 0.052485492 0.13953616 0.040962335 -0.035467114 -0.07701983 -0.049387902
-0.11635575 -0.08469547 0.15031762 -0.06963706 -0.09364344 -0.158624 -0.069952354 -0.02663719
0.05160329 0.090512596 0.10261239 0.14448099 -0.079617545 0.062124826 0.012841168 -0.058620393
0.29998374 -0.05024079 -0.026534231 0.011599409 0.09356924 0.09298603 -0.15341164 0.04490032
-0.12712629 -0.094562694 -0.015435343 -0.08095653 -0.050696623 -0.1279916 -0.1202795 -0.096628465
-0.07568692 -0.05505828 -0.04360598 -0.23872632 0.070951134 -0.030381432 0.13872275 -0.121282004
-0.20076944 -0.20963372 0.061853748 -0.12078163 0.07732259 0.029968483 -0.15305191 0.07444089
-0.15498295 -0.034762785 0.053777 0.13521516 0.11214625 -0.05160926 0.037315458 -0.16620159
00000000: 8367 c9bd 2468 2fbe 07fb 563d 91e2 0e3e
00000010: 1fc8 273d f745 11bd 93bc 9dbd f84a 4abd
00000020: ec4b eebd d274 adbd ddec 193e e09d 8ebd
00000030: 22c8 bfbd 546e 22be 2e43 8fbd 3c36 dabc
00000040: f95d 533d ab5e b93d 7226 d23d d3f2 133e
00000050: 860e a3bd 9a76 7e3d c363 523c f01b 70bd
00000060: 7897 993e 49c9 4dbd 515e d9bc 730b 3e3c
00000070: 3ba1 bf3d 766f be3d f117 1dbe 66e9 373d
00000080: 652d 02be 16aa c1bd 85e4 7cbc 8acc a5bd
00000090: 43a7 4fbd 3b10 03be 1955 f6bd 25e5 c5bd
000000a0: be01 9bbd ca84 61bd 2f9c 32bd ac74 74be
000000b0: d44e 913d 7be2 f8bc 560d 0e3e b362 f8bd
000000c0: 8196 4dbe 39aa 56be 5b5a 7d3d 5c5c f7bd
000000d0: 4e5b 9e3d 7780 f53c a4b9 1cbe 7774 983d
000000e0: dab3 1ebe 6c63 0ebd 4645 5c3d d875 0a3e
000000f0: efac e53d 3b64 53bd 18d8 183d c030 2abe
